rag_router.pth (torch, 702773 bytes, 21 tensors)

body.0.weight f4 [128, 384]
0	0xbd03ba27	-0.03215995
1	0xbbc46a76	-0.0059941364
2	0x3d0920c6	0.03347852
3	0xbcf9ae5a	-0.030478645
4	0x3dcfc7b9	0.10145516
5	0x3dc569a6	0.096392915
6	0x3b40e5c8	0.0029433835
7	0xbd9eeba4	-0.07759789
8	0x3d9ac181	0.07556439
9	0xbc805997	-0.01566772
10	0xbd15f64e	-0.036611848
11	0xbcc5eb0e	-0.024159934
12	0xbd0eb9d9	-0.034845207
13	0xbce101be	-0.027466651
14	0xbd52418e	-0.05133205
15	0xbdaa6d04	-0.08321574
16	0xbd5e6bd1	-0.05430204
17	0x3d8fcccb	0.07021483
18	0xbce2ed6a	-0.027701098
19	0xbd7ae3ce	-0.061252408
20	0xbc642f4a	-0.01392729
21	0xbca0aab3	-0.019612646
22	0xbd752ea9	-0.05985895
23	0xbc33944e	-0.010960652
24	0xba80766a	-0.0009800915
25	0x3d1758d8	0.036949962
26	0x3ac533aa	0.0015045304
27	0x3d75ac03	0.059978496
28	0xbda32c27	-0.07967406
29	0xbd57449f	-0.052555677
30	0x3df2d58f	0.11857139
31	0x3da95b66	0.08269386
32	0xba678636	-0.00088319497
33	0xbc544940	-0.012956917
34	0x3cea6210	0.028611213
35	0xbcad1c36	-0.021131616
36	0xbd977619	-0.07395572
37	0xbc752000	-0.014961243
38	0x3c8d19cd	0.017224217
39	0xbd75a040	-0.05996728
40	0xbdc2b3c1	-0.095069416
41	0xbd766270	-0.06015247
42	0x3bbb52eb	0.0057166717
43	0x3d199f82	0.037505634
44	0x3d38efbe	0.04515051
45	0x3dd991c9	0.106235094
46	0x3c975c05	0.018476496
47	0x3d7bcf25	0.061476845
48	0x3ce27542	0.027643804
49	0x3d0ff08e	0.03514152
50	0x3d3b27e5	0.045692343
51	0xbdc9aac0	-0.09847021
52	0xbbeae8df	-0.0071688737
53	0x3c7f32f8	0.015576117
54	0xbdd0beaf	-0.1019262
55	0x3d9d1d42	0.07671596
56	0x3d26675c	0.040625915
57	0x3d483508	0.0488787
58	0xbd9d8753	-0.07691827
59	0xbd1c7201	-0.03819466
60	0x3d03fc4a	0.032223023
61	0xbd4861d6	-0.04892143
62	0xbd72a913	-0.059243273
63	0x3d1a7548	0.037709504
64	0xbda2ee9a	-0.07955666
65	0xbca4c588	-0.020113721
66	0xbcc91c0b	-0.024549505
67	0x3bdb3206	0.006689313
68	0x3dc99370	0.098425746
69	0xbd80922d	-0.06277881
70	0x3c31d0ee	0.010853035
71	0xbc53dca5	-0.012931024
72	0xbd26d396	-0.040729128
73	0x3cef3301	0.029199125
74	0x3d82738b	0.06369694
75	0x3cb494b9	0.022043573
76	0x3d6875eb	0.05675308
77	0xbd1b4f59	-0.03791747
78	0x3d3695b5	0.044576366
79	0x3d601cf5	0.054715116
80	0xbd2dcc30	-0.042431056
81	0xbbc3ff9a	-0.005981398
82	0xbcb6fd6d	-0.02233764
83	0xbbd0b032	-0.0063686604
84	0x3d7b450f	0.061345156
85	0x3cb52092	0.022110257
86	0x3c170452	0.009217339
87	0x3cce9dda	0.025221754
88	0x3bcdd8bd	0.0062819407
89	0xbc03c1ba	-0.0080417935
90	0x3d85bb09	0.06529815
91	0xbdbc5496	-0.09195821
92	0x3d2d0d73	0.042249154
93	0xbd55e5bb	-0.05222104
94	0xbda78829	-0.08180267
95	0xbd90b28f	-0.07065307
96	0x3cbd9b68	0.023145393
97	0xbd813132	-0.063082114
98	0xbcc4df26	-0.024032187
99	0x3d97b24a	0.07407053
100	0x3bec2a9a	0.007207227
101	0xbb438092	-0.0029831273
102	0xbd20ac98	-0.0392271
103	0xbdb881bc	-0.0900912
104	0x3de98089	0.11401469
105	0xbd4d3d26	-0.050107144
106	0x3d3a26be	0.045447104
107	0x3d900ca4	0.07033661
108	0x3dd94056	0.10607974
109	0x3d78647a	0.060642697
110	0x3c01c0cc	0.0079195015
111	0xbd8a5096	-0.06753652
112	0xb9e2cd1e	-0.00043258903
113	0x3dccd7ee	0.10002123
114	0x3c70a10a	0.014686832
115	0xbca17dca	-0.019713301
116	0xbcb8b877	-0.022548897
117	0xbd7cba35	-0.06170102
118	0x3da293b5	0.07938329
119	0xbd93334a	-0.07187517
120	0xbcba29a7	-0.02272494
121	0x3d81a334	0.06329957
122	0x3dca7faa	0.09887631
123	0xbc8509c7	-0.016240014
124	0xbc8380a3	-0.01605255
125	0xbc9d3f38	-0.019195184
126	0x3db13ddd	0.086543776
127	0x3d1263b4	0.035739616
128	0xbd947d34	-0.07250443
129	0x3ddec0ce	0.10876618
130	0x3d01b3ea	0.03166572
131	0xbdb69896	-0.08915822
132	0x3db30380	0.08740902
133	0xbdaea7e3	-0.085281156
134	0x3d56dac0	0.05245471
135	0xbd97644a	-0.073921755
136	0xbb9c34af	-0.0047670226
137	0x3c97329a	0.018456746
138	0xbddadb58	-0.10686368
139	0x3bf52cfa	0.0074821683
140	0x3d50f9fe	0.05101966
141	0xb897cfba	-7.238933e-05
142	0x3ce7dcc5	0.028303513
143	0x3da33cdb	0.07970592
144	0xbce7db05	-0.028302679
145	0x3af6d1da	0.0018830851
146	0xbc3649a6	-0.011125958
147	0xbcddab0f	-0.027059106
148	0xbcd197c5	-0.025585065
149	0xb9a3d3da	-0.00031247624
150	0x3c373974	0.0111831315
151	0xbdc06cae	-0.09395729
152	0x3d00c05f	0.03143346
153	0xbc331afd	-0.0109317275
154	0x3bc88011	0.0061187823
155	0xbcd376fa	-0.025813568
156	0xbca9b794	-0.02071742
157	0x3c1c2355	0.009529908
158	0x3cd7e366	0.02635355
159	0x3d9ff39b	0.07810136
160	0xbd4b73ed	-0.049671102
161	0x3d17b461	0.037037257
162	0xbd1d4c38	-0.038402766
163	0xbd4ed626	-0.050497197
164	0x3d17a99a	0.03702698
165	0xbdaafd3e	-0.08349083
166	0xbd848bb6	-0.0647196
167	0xbd2a086a	-0.04151193
168	0x3bd0fa41	0.006377489
169	0xbd696a24	-0.05698599
170	0xbd9c023d	-0.076176144
171	0x3d53e2e6	0.05173006
172	0x3c6fab7c	0.014628287
173	0xbd97058f	-0.07374107
174	0x3b4c3a84	0.0031162808
175	0xbcd4fe9c	-0.026000313
176	0x3c2f7991	0.010710136
177	0x3b855216	0.0040686233
178	0xbd7c135d	-0.061541904
179	0x3d345fd2	0.044036694
180	0xbd148962	-0.03626383
181	0x3d0a51f5	0.033769567
182	0xbb875f90	-0.004131265
183	0x3c66db14	0.014090318
184	0x3d9be7cf	0.07612573
185	0x3b8e9874	0.00435167
186	0xbc95e096	-0.018295567
187	0xbd002761	-0.031287555
188	0x3d98bdbd	0.07458065
189	0x3d5dd0a6	0.05415406
190	0xbd1b7c88	-0.03796056
191	0xbcca42d9	-0.024690079
192	0xbd24ca36	-0.040231906
193	0xbd9d0fc6	-0.07669024
194	0x3d782dbe	0.0605905
195	0x3c68036c	0.014160972
196	0x3c9a379a	0.018825341
197	0xbc19a668	-0.009378053
198	0xbd348b29	-0.044078026
199	0xbcec1d05	-0.028822431
200	0x3d858619	0.06519718
201	0x3c7b482b	0.01533703
202	0xbd9696c2	-0.073529735
203	0x3cfd77ec	0.030940972
204	0xbd8dddab	-0.069270454
205	0x3dce44e0	0.100717306
206	0xbc22adcf	-0.0099291345
207	0x3d1689e3	0.036752593
208	0xbc3be9a8	-0.011469282
209	0x3c0c758b	0.008572946
210	0xbd4b7756	-0.049674354
211	0x3d84b126	0.06479101
212	0xbdb52ff2	-0.088470355
213	0x3ce6232a	0.02809294
214	0x3ce257fb	0.027629843
215	0x3d081024	0.033218518
216	0x3ac5ca5a	0.0015090213
217	0xbdcde014	-0.10052505
218	0xbc516c53	-0.012782174
219	0xbcc1147f	-0.023569344
220	0x3d5f4630	0.054510295
221	0xbdddbc7a	-0.10826965
222	0xbb5dea83	-0.0033861704
223	0xbc507c85	-0.012725
224	0xbd90b8d6	-0.07066505
225	0xbd4308b2	-0.047615714
226	0xbbf68beb	-0.0075240037
227	0xbd863c84	-0.06554511
228	0x3d2840af	0.041077312
229	0x3d9c04cf	0.07618105
230	0xbd04facc	-0.03246574
231	0x3d55332c	0.052050754
232	0xbde3cd69	-0.11123163
233	0xbb09ef25	-0.0021047082
234	0x3cbe71c1	0.023247601
235	0x3db96076	0.090516016
236	0x3bfb6dca	0.007673
237	0xbc83ef49	-0.016105311
238	0x3d87a3b4	0.06623021
239	0x3c38812e	0.011261268
240	0x3c918de4	0.017767854
241	0x3d3cd447	0.04610088
242	0xbd575888	-0.052574664
243	0xbdb7f6b9	-0.089826055
244	0xbdd1d56e	-0.102457866
245	0xbd6daad3	-0.05802424
246	0x3d0485ef	0.03235429
247	0xbda4fad1	-0.08055652
248	0x3d2cb056	0.042160355
249	0x3cbca24b	0.023026606
250	0x3dc23ed2	0.09484638
251	0xbc42b69e	-0.01188436
252	0xbcc46dc4	-0.023978122
253	0xbb7a1d8a	-0.003816458
254	0x3dc64abb	0.096822225
255	0xbcf148f8	-0.02945374

body.0.bias f4 [128]
0	0xba12c2cf	-0.0005598487
1	0xbc0d079e	-0.008607773
2	0x3c8fb92b	0.01754435
3	0xbc923eba	-0.017852176
4	0xbd1c9b13	-0.038233828
5	0x3c4a65b2	0.012353348
6	0xbc84449e	-0.016146
7	0x3d802dda	0.062587455
8	0x3b88cf41	0.004175097
9	0x3d50b879	0.050957177
10	0xbcfd1165	-0.030892083
11	0x3d73107e	0.0593419
12	0x3d97b242	0.07407047
13	0xbb87e728	-0.004147429
14	0xbd1ebbe8	-0.03875342
15	0xbd0fda4a	-0.035120286
16	0x3d61405c	0.05499302
17	0x3b98f069	0.004667331
18	0xbd2bb273	-0.04191823
19	0xbcf35fd5	-0.029708782
20	0xbd28df49	-0.041228566
21	0xb9f4bafe	-0.00046678627
22	0x3cfd81c1	0.03094566
23	0xbca0588e	-0.019573476
24	0x3c4e3435	0.012585689
25	0x3bb1ea43	0.0054295375
26	0xbc450c45	-0.012026851
27	0x3d45f2a9	0.048327122
28	0x3cce4078	0.025177225
29	0x3d7b06e4	0.06128587
30	0xbcbf633d	-0.02336275
31	0xbb3a52c4	-0.002843068
32	0xbcad9ae9	-0.021192031
33	0x3d14e482	0.036350735
34	0xbcdaa77a	-0.026691187
35	0x3d0e9eb7	0.03481933
36	0x3d597ae0	0.0530957
37	0x3cd7f281	0.026360752
38	0x3c3c6ec3	0.011501017
39	0x3cc910d8	0.024544165
40	0xbbd627a6	-0.006535488
41	0x3ceb4241	0.028718116
42	0xbcb7324a	-0.022362847
43	0x3d16ea37	0.03684446
44	0xbc66e400	-0.014092445
45	0xbd270a91	-0.04078156
46	0xbd0bd449	-0.034137998
47	0xbd3a55f2	-0.04549212
48	0x3ca5a8e7	0.02022214
49	0x3d5f02a4	0.054445878
50	0x3d7bd536	0.06148263
51	0x3cef82a7	0.029237105
52	0x3c9b03f5	0.018922785
53	0xbcde0978	-0.027104124
54	0x3d9baab2	0.07600917
55	0x3c5849c3	0.01320118
56	0x3c11a0ac	0.008888405
57	0x3c7a01ad	0.015259189
58	0xbca2e121	-0.01988274
59	0x3c66bd54	0.014083225
60	0x3c98fc8c	0.018675111
61	0x3d444a97	0.047922697
62	0x3c9854ec	0.018595181
63	0x3af53212	0.0018706939
64	0xbd384e63	-0.04499663
65	0x3d241aed	0.04006474
66	0x3d909ae2	0.070607916
67	0xbb4db380	-0.0031387508
68	0xbd43f8c8	-0.04784468
69	0x3cdf2c4a	0.027242798
70	0x3cc0f503	0.02355433
71	0xbd027b4f	-0.031855877
72	0x3c1bb037	0.009502462
73	0x3d1ae8ad	0.037819553
74	0xbd20697a	-0.03916309
75	0x3d86a4d8	0.0657441
76	0x3d6f94cd	0.058491517
77	0x3d44d42a	0.048053898
78	0xbad21aff	-0.0016029774
79	0x3c01af12	0.007915275
80	0xbd334557	-0.0437673
81	0x3d58ea82	0.05295802
82	0x3d149603	0.036275875
83	0x3afca43b	0.0019275019
84	0xbd12d3dc	-0.035846576
85	0x3c8745a0	0.016512692
86	0x3d4924f2	0.0491075
87	0x3d6ef32e	0.058337383
88	0x3d9c4cfc	0.07631871
89	0x3d68a3c4	0.056796804
90	0xbcd80a11	-0.026371988
91	0x3d8e2a6e	0.069416866
92	0x3c84ab6d	0.016195023
93	0x3d348459	0.04407153
94	0xbd4405be	-0.04785704
95	0x3ca4f469	0.020136075
96	0xbb802ee6	-0.0039118407
97	0x3d880d1f	0.06643128
98	0x3d732cb3	0.0593688
99	0x3b09cfe1	0.0021028446
100	0xbd35f86e	-0.044426374
101	0x3b9f87ad	0.0048684687
102	0x3d34e5e8	0.04416457
103	0xbcc08c0a	-0.023504276
104	0x3d5e603f	0.054291006
105	0xbc2e0cef	-0.010623201
106	0xbd29c14b	-0.041444104
107	0x3b97fc89	0.004638259
108	0xbd4426d3	-0.04788859
109	0xbcf9e478	-0.03050445
110	0x3d335d46	0.043790124
111	0x3d34eb8b	0.044169944
112	0xbd1d4e06	-0.038404487
113	0xbd526d23	-0.051373612
114	0x3b6dac14	0.0036265897
115	0xbd233e74	-0.03985448
116	0xbd3a1e97	-0.04543933
117	0x3ca68b5c	0.020330124
118	0xbc851910	-0.016247302
119	0x3d824fc0	0.06362867
120	0x3b43a16c	0.0029850854
121	0xbd4fa491	-0.050694052
122	0x3d586a5b	0.052835803
123	0x3d121055	0.035660107
124	0x3cca134d	0.024667406
125	0xbd231f2c	-0.03982465
126	0xbd1ba9d2	-0.03800375
127	0x3d7430f5	0.059617

body.2.weight f4 [64, 128]
0	0x3d3d5bfb	0.046230298
1	0x3d759c9e	0.059963815
2	0xbd81b077	-0.06332486
3	0xbd4d0e18	-0.05006227
4	0x3d00627d	0.031343926
5	0xbd810073	-0.06298914
6	0x39a21c19	0.00030919982
7	0xbd54be6d	-0.051939417
8	0xbd880e1a	-0.06643315
9	0x3d0ec665	0.034857173
10	0x3c7dc865	0.015489672
11	0x3da18ed4	0.078885704
12	0xbd2fa603	-0.04288293
13	0xbdacb1c5	-0.08432344
14	0xbd1f9d3a	-0.038968302
15	0xbd7dafae	-0.06193512
16	0xbd813f7e	-0.06310938
17	0xbcae4e48	-0.021277562
18	0x3b6164cc	0.0034392355
19	0x3d49cde8	0.049268633
20	0xbcd0e726	-0.025500845
21	0x3d0c581e	0.034263723
22	0xbd817748	-0.06321579
23	0xbd8cf435	-0.06882516
24	0xbd7a833f	-0.061160322
25	0x3d1cc468	0.038273245
26	0xbc7bdfb2	-0.015373157
27	0x3bc26342	0.0059322426
28	0x3b1cb5e1	0.002391212
29	0x3d5e36aa	0.05425135
30	0xbd7158f2	-0.058922715
31	0x3d1dbbe8	0.03850928
32	0x3da5ee2a	0.08102067
33	0x3d9dec0a	0.077110365
34	0xbd7e011e	-0.062012784
35	0xbdaa3283	-0.083104156
36	0x3c9c7a87	0.019101394
37	0xbcfcb8fa	-0.030849922
38	0xbae91e0b	-0.0017785443
39	0xbd8856e4	-0.06657198
40	0xbda14fb6	-0.07876532
41	0x3d8b5736	0.068037435
42	0xbd39bffe	-0.045349114
43	0xbb67d598	-0.0035375115
44	0xbc833f16	-0.016021293
45	0x3cbe5e92	0.023238454
46	0x3d17574f	0.0369485
47	0x3b646d33	0.0034855127
48	0x3d12be1c	0.035825834
49	0x3cd2723e	0.02568924
50	0x3cd28c7f	0.02570176
51	0x3d4a860d	0.049444247
52	0xbd7b4088	-0.06134084
53	0x3cb6a920	0.022297442
54	0xbcab19cc	-0.020886324
55	0x3d2c9019	0.04212961
56	0xbd70a1f3	-0.058748197
57	0xbb3dbd1c	-0.002895183
58	0xbac299cb	-0.0014846859
59	0x3bd750a7	0.006570894
60	0xbceb5dbd	-0.028731221
61	0xbb6c9ba6	-0.0036103516
62	0x3d3349a0	0.043771386
63	0x3b2c6a7d	0.002630859
64	0x3a4bb73f	0.0007771141
65	0xbc970242	-0.018433694
66	0xbd26fb5b	-0.040767055
67	0x3d9b23a4	0.07575157
68	0xbd9fbe9a	-0.07800026
69	0x3cdd5fb6	0.027023178
70	0x3d0a5f93	0.033782553
71	0xbd985249	-0.0743757
72	0x3caae9a0	0.020863354
73	0x3c7219e9	0.014776685
74	0x3cdcc0bf	0.026947377
75	0xbc226bbc	-0.009913381
76	0xbd72dbbc	-0.059291586
77	0xbda8b5e1	-0.08237816
78	0xbc3bf28d	-0.011471403
79	0x3cf59c33	0.029981708
80	0xbd1ff452	-0.03905136
81	0xbbb9f2df	-0.0056747044
82	0xbbe7041d	-0.007050051
83	0x3db2ea28	0.08736068
84	0xbd845320	-0.06461167
85	0x3d96fe42	0.073727146
86	0x3d1b951b	0.037983995
87	0xbd65c891	-0.05609948
88	0x3c9e4aa7	0.019322706
89	0xbc1da662	-0.009622188
90	0xbc43479c	-0.0119189285
91	0x3d946cf1	0.072473414
92	0xbd484e1a	-0.04890261
93	0xbcaadaee	-0.020856347
94	0x3d4d4a35	0.050119597
95	0xbb84b947	-0.004050407
96	0xbd722ab9	-0.059122775
97	0xbdafd008	-0.08584601
98	0x3d2de947	0.0424588
99	0xbda0c432	-0.07849921
100	0x3c0fa5cb	0.0087675555
101	0xbce07ab9	-0.027402269
102	0xbda49b0e	-0.08037387
103	0x3d282881	0.041054253
104	0x3d81c61c	0.063366145
105	0x3d2c8567	0.04211941
106	0x3d86494a	0.065569475
107	0x3d303ce2	0.043026812
108	0xbd213a6e	-0.039362364
109	0xbd3eb499	-0.04655895
110	0x3c1a3c9f	0.009413867
111	0xbd9aa5b0	-0.07551134
112	0x3d3de178	0.046357602
113	0x3d88112a	0.06643899
114	0xbc05949d	-0.008153108
115	0xbd8eba09	-0.06969077
116	0xbda91fa5	-0.08257989
117	0x3d7734aa	0.06035296
118	0x3d5f07a2	0.05445064
119	0x3dac96ed	0.08427224
120	0xbcf8be47	-0.030364169
121	0x3d1a1073	0.037613343
122	0xbcd60e58	-0.026129887
123	0x3db2375a	0.08701964
124	0xbd2ee1bf	-0.042695757
125	0x3cc4a836	0.02400599
126	0xbd97c0d7	-0.07409828
127	0x3c5862ec	0.013207179
128	0xbd588516	-0.052861296
129	0xbcd702c7	-0.026246442
130	0xbd382575	-0.044957597
131	0xbd1bd797	-0.0380474
132	0xbc948f2a	-0.018134672
133	0x3cd3d790	0.025859624
134	0x3d050e42	0.0324843
135	0xbd8c052a	-0.068369225
136	0x3cd1bbd0	0.025602251
137	0xbd61b882	-0.0551076
138	0x3d884928	0.066545784
139	0x3d6c5ae4	0.057703868
140	0x3d4ad3ba	0.049518324
141	0x3ceb4c60	0.028722942
142	0x3d9f163d	0.077679135
143	0xbd47f552	-0.04881794
144	0xbd45315b	-0.048142772
145	0xbd36ae05	-0.04459955
146	0xbd68052d	-0.05664556
147	0x3dabae9c	0.083829135
148	0x3d072459	0.03299365
149	0xbd8fd32b	-0.07022699
150	0xbd8aa860	-0.06770396
151	0xbd594239	-0.05304167
152	0xbbcd217c	-0.006260095
153	0xbd9c4824	-0.07630947
154	0xbd9ded0c	-0.07711229
155	0xbcb570a5	-0.02214844
156	0xbd469bbe	-0.04848837
157	0x3d5b43a0	0.05353129
158	0xbc86c68a	-0.016452093
159	0x3ce9223d	0.028458709
160	0x3cecaf7f	0.028892277
161	0xbc8f0392	-0.017457757
162	0x3d774c94	0.060375765
163	0x3d3e97b0	0.04653138
164	0xbb7bd910	-0.003842894
165	0xbc88b81e	-0.016689356
166	0x3d1c5baf	0.038173374
167	0xbdbeb79c	-0.093123645
168	0x3bbc7488	0.0057511963
169	0xbd800fc0	-0.06253004
170	0x3d4bbd7a	0.049741246
171	0xbd849399	-0.064734645
172	0xbc98f169	-0.0186698
173	0xbd25ccea	-0.040478624
174	0xbc650800	-0.013978958
175	0xbbf3a7bd	-0.0074357674
176	0x3d80b6b3	0.06284847
177	0x3d667961	0.0562681
178	0xbda9b412	-0.08286299
179	0xbda5954e	-0.08085118
180	0x3c99ba07	0.018765463
181	0xbca9e9c8	-0.020741358
182	0xbdaee19d	-0.08539126
183	0x3a857ba5	0.0010183944
184	0xbd9b2edb	-0.07577296
185	0xbc3bd3c1	-0.01146406
186	0xbc1181de	-0.00888106
187	0xbca39ee4	-0.019973226
188	0x3d22336b	0.039599817
189	0xbdd67699	-0.104718395
190	0xbd01aa96	-0.031656824
191	0x3d345457	0.044025745
192	0xbdaa7d1f	-0.08324646
193	0xbcfb8c72	-0.030706618
194	0xbde26565	-0.11054496
195	0xbceda807	-0.029010786
196	0x3be18b77	0.0068830806
197	0xbaf1d06a	-0.0018448953
198	0xbd3fd33a	-0.0468323
199	0xbd63898a	-0.05555109
200	0x3d35e68a	0.044409312
201	0x3c28575f	0.010274737
202	0xbd8c10f2	-0.068391696
203	0x3cabdae8	0.020978406
204	0xbd58ff8d	-0.052978087
205	0xbbc80c0b	-0.0061049513
206	0xbdca2b6b	-0.098715626
207	0xbc7ddb19	-0.0154941315
208	0xbccfdf04	-0.025374897
209	0xbd8b1a0d	-0.06792078
210	0xbb81e06f	-0.003963522
211	0xbd1f42d9	-0.03888211
212	0x3c2cdfc2	0.010551395
213	0x3d28e1ee	0.04123109
214	0xbdc2b4f1	-0.09507168
215	0x3d7575ae	0.05992668
216	0xbdaf1b60	-0.08550143
217	0x3cbdf5a4	0.02318842
218	0xbb91fc02	-0.0044550905
219	0x3d344f9c	0.044021234
220	0x3cad30e0	0.02114147
221	0xbc4d427f	-0.012528061
222	0xbc7c489d	-0.015398172
223	0xbd4ec303	-0.050478946
224	0xbd1c50a4	-0.038162842
225	0xbcd4a886	-0.025959264
226	0xbdcb87cd	-0.09938011
227	0xbd8393c9	-0.06424672
228	0x3da5168a	0.080609396
229	0x3c86d188	0.016457334
230	0xbd35fea2	-0.04443229
231	0x3c96d2b8	0.018411025
232	0xbdacd69a	-0.084393695
233	0x3c0b961c	0.008519676
234	0x3cbd7ba8	0.023130253
235	0xbdaf37c1	-0.08555556
236	0x3d53fd2d	0.05175512
237	0x3d2a4045	0.0415652
238	0xbd8450af	-0.06460702
239	0xbd9d1ebe	-0.07671879
240	0xbc069e1f	-0.00821641
241	0xbdbb16a5	-0.091351785
242	0x3d3c25ed	0.045934606
243	0xbcff87a4	-0.031192608
244	0xbd8fa811	-0.07014478
245	0x3ba508d5	0.0050364533
246	0x3d5489a5	0.05188908
247	0xbda7050d	-0.0815526
248	0x3ba13ca6	0.00492056
249	0xbbf337dc	-0.0074224304
250	0xbd164547	-0.03668716
251	0xbdb3493c	-0.08754203
252	0x3bf80f08	0.0075701512
253	0xbd9b715b	-0.0758998
254	0x3d9a7f84	0.07543853
255	0xbd27b733	-0.040946197

body.2.bias f4 [64]
0	0xbda21eff	-0.07916068
1	0x3d916ecf	0.07101213
2	0x3dd9ed10	0.10640919
3	0x3dbba7e6	0.091628835
4	0x3dee4a93	0.11635318
5	0x3dae02c4	0.08496621
6	0x3bb91162	0.005647824
7	0x3dd06878	0.10176176
8	0x3d1c26b2	0.03812284
9	0xbd58f778	-0.05297038
10	0xbd752967	-0.059853937
11	0xbc7eece7	-0.015559412
12	0x3d9291c0	0.07156706
13	0xbccc80dc	-0.024963789
14	0xbdce811b	-0.10083219
15	0x3dc521ec	0.09625611
16	0xbd98f7bc	-0.074691266
17	0xbd929bcd	-0.07158623
18	0x3dac913b	0.08426138
19	0x3db4188a	0.08793743
20	0x3d33c129	0.043885384
21	0x3d258f67	0.040419962
22	0xbc53ca77	-0.012926689
23	0xbd217a5d	-0.039423335
24	0xbcf104ed	-0.029421294
25	0xbd013edb	-0.031554084
26	0xbdc6b7e6	-0.097030446
27	0x3ced5e78	0.02897571
28	0xbc9acfe4	-0.018897958
29	0x3c88622d	0.016648376
30	0xbd709d5d	-0.058743823
31	0xba8c99a5	-0.0010726942
32	0xbcb8dbaf	-0.02256569
33	0x3d482959	0.048867557
34	0xbd856e07	-0.06515127
35	0x3b9d8d8b	0.004808133
36	0xbcf111bb	-0.0294274
37	0xbd25353e	-0.04033398
38	0xbce8f392	-0.028436456
39	0x3c40e8b0	0.011774227
40	0x3b36232c	0.002779196
41	0x3d8f68e1	0.07002426
42	0x3c8f6cf2	0.017508004
43	0x3d0027d8	0.031287998
44	0xbc9f1233	-0.019417858
45	0xbda7247a	-0.08161254
46	0x3d9dc4dc	0.077035636
47	0x3db3c204	0.0877724
48	0x3dac7097	0.08419912
49	0xbbd7649f	-0.0065732743
50	0x3d46a2d2	0.04849512
51	0xbc766eff	-0.015041112
52	0xbd18c1bc	-0.037294134
53	0xbcbae5b0	-0.022814602
54	0xbab5f1ee	-0.0013881305
55	0xbd26df80	-0.04074049
56	0x3e022005	0.12707527
57	0xbdbbb894	-0.09166065
58	0x3d166632	0.036718555
59	0x3c7b671a	0.015344406
60	0xbd63f5cc	-0.055654332
61	0xbd201351	-0.03908092
62	0xbd101594	-0.03517683
63	0xbc136d0b	-0.008998166

critic_head.weight f4 [1, 64]
0	0xbd51adc8	-0.05119112
1	0x3b869830	0.0041074976
2	0x3cb1002e	0.021606531
3	0x3e0ac4e2	0.13551667
4	0x3d31a2d9	0.043368194
5	0x3d8add48	0.06780487
6	0x3d86e35b	0.06586333
7	0x3dc66421	0.09687067
8	0x3e0be316	0.13660845
9	0xbd13e3d1	-0.036105935
10	0xbd33a724	-0.04386057
11	0xbc130557	-0.008973441
12	0xbd0f6e70	-0.03501743
13	0x3cad2c38	0.02113925
14	0xbdd0dd43	-0.10198452
15	0x3e03297d	0.12808795
16	0xbdf78016	-0.12084977
17	0x3c88d3f0	0.016702622
18	0x3ddc6ed1	0.10763324
19	0x3d4d94f5	0.050190885
20	0xbbdf154f	-0.00680796
21	0x3de3926b	0.111119114
22	0xbc5b4f96	-0.013385674
23	0xbcf1f747	-0.029536856
24	0xbd1c9598	-0.0382286
25	0xbc295dec	-0.010337334
26	0xbd91469b	-0.07093545
27	0xbdb0d4eb	-0.08634361
28	0xbd03051e	-0.031987302
29	0x3dc1a434	0.094551474
30	0x3c5bc596	0.013413807
31	0xbbb9f2ea	-0.0056747096
32	0x3df73a38	0.12071651
33	0x3d9e54d9	0.07731027
34	0xbda98544	-0.082773715
35	0xbc8739b5	-0.016507009
36	0xbdc49487	-0.09598642
37	0x3d88084b	0.06642207
38	0xbd231e5d	-0.03982388
39	0xbd17b569	-0.03703824
40	0xbd88669e	-0.06660198
41	0x3e1579ae	0.14597198
42	0xbd966aac	-0.07344565
43	0xbcc39c50	-0.023878247
44	0xbd3086de	-0.04309737
45	0xbc0dc126	-0.008652007
46	0x3dadc3b6	0.084845945
47	0x3de8fc62	0.11376263
48	0x3c74e297	0.014946601
49	0x3c543ca6	0.012953913
50	0xbddb7ad9	-0.10716791
51	0xbc19d7d8	-0.00938984
52	0x3d5dde0d	0.054166842
53	0xbd731dc1	-0.059354547
54	0xbd9e1e94	-0.07720676
55	0xbdd82322	-0.10553576
56	0x3d6949f7	0.056955304
57	0xbc2e7a78	-0.010649316
58	0xbda01f9e	-0.078185305
59	0xbdcee57f	-0.10102367
60	0x3ba03bb6	0.0048899306
61	0x3e05e1d0	0.13074422
62	0xbb5c43be	-0.0033609713
63	0xbd301ec1	-0.04299808

actor_head.weight f4 [2, 64]
0	0xbdfbb73a	-0.12290807
1	0xbda37bfe	-0.07982634
2	0xbe21e88f	-0.1581137
3	0x3d6d4119	0.05792341
4	0xbe580cf2	-0.21098688
5	0xbe8f802b	-0.28027472
6	0x3eb3fd10	0.3515401
7	0x3c2a865b	0.010408009
8	0xbe853b9e	-0.26022047
9	0xbd3f2a5f	-0.046671268
10	0xbd12a0ee	-0.035798006
11	0xbdea21e7	-0.114322476
12	0xbe1a7647	-0.15084182
13	0xbb21b6c0	-0.0024675578
14	0x3d7c5873	0.06160779
15	0xbe9043ab	-0.28176627
16	0xbd662080	-0.05618334
17	0xbdd24c08	-0.10268408
18	0xbe60a6fe	-0.21938702
19	0x3ea65816	0.3248908
20	0xbd1b7dc4	-0.037961736
21	0xbe42f043	-0.19036965
22	0x3d3d8b6e	0.04627555
23	0xbdc5fc15	-0.096672215
24	0xbd173089	-0.03691152
25	0x3e0035ba	0.12520495
26	0xbe2b0c53	-0.1670392
27	0xbd789e04	-0.06069757
28	0xbc3ef3bf	-0.011654793
29	0xbe1a2214	-0.15052062
30	0xbe953033	-0.29138336
31	0xbda5234e	-0.080633745
32	0x3e8b25b9	0.27177218
33	0x3db13204	0.08652118
34	0xbc917f28	-0.017760828
35	0xbcc90962	-0.024540607
36	0xbd02383e	-0.031791918
37	0x3e2aa771	0.16665436
38	0xbe2d6471	-0.16932847
39	0xbd9dac09	-0.07698829
40	0xbc9b2e97	-0.018943114
41	0x3d931205	0.07181171
42	0xbc826ffb	-0.015922537
43	0x3cccf1ab	0.02501758
44	0x3d71a7df	0.058997985
45	0xbdb826d0	-0.08991778
46	0xbe83bdd3	-0.25730762
47	0xbe27a7eb	-0.1637265
48	0x3cf2cf30	0.02963981
49	0xbe774d99	-0.24150695
50	0xbd378ed2	-0.04481394
51	0xbcf59083	-0.029976135
52	0x3db6900f	0.08914196
53	0x3d666a25	0.05625357
54	0x3de1d4b2	0.110268965
55	0xbdbdebf0	-0.09273517
56	0x3ec46196	0.38355702
57	0x3daac382	0.083380714
58	0xbd5bed96	-0.053693376
59	0x3d4b3312	0.04960925
60	0x3d803cdc	0.06261608
61	0x3d9c24f0	0.07624233
62	0x3dacce67	0.084378056
63	0xbd50707f	-0.050888535
64	0x3dc39abc	0.095509976
65	0x3d535e47	0.05160358
66	0x3aee96b2	0.001820287
67	0x3dc48ddb	0.09597369
68	0x3dcb214f	0.099184625
69	0x3db2aee0	0.08724761
70	0xbe843f24	-0.25829422
71	0x3d00444e	0.03131514
72	0x3e810555	0.2519938
73	0x3d5fd6cf	0.054648217
74	0xbc856af6	-0.016286355
75	0xbcedb3af	-0.029016344
76	0x3e202d33	0.15642242
77	0x3d807586	0.06272416
78	0x3d88ce1a	0.06679936
79	0x3e956729	0.29180267
80	0xbd0bc038	-0.03411886
81	0x3d984674	0.07435313
82	0x3e8f190d	0.279488
83	0xbdf691db	-0.120395385
84	0xbd95a064	-0.07305983
85	0x3e5b9287	0.21442614
86	0x3a6f5b40	0.0009130724
87	0x3dc03967	0.09385949
88	0x3bac7acb	0.0052636615
89	0xbc871123	-0.016487664
90	0x3d43443e	0.047672503
91	0x3d80ed56	0.06295268
92	0xbd9f66e1	-0.077832945
93	0x3e833fb7	0.25634548
94	0x3e77538b	0.24152963
95	0x3d878c46	0.06618552
96	0xbe5dd1c2	-0.21662048
97	0xbd32ebc3	-0.04368187
98	0xbda4fcb0	-0.08056009
99	0x3d813945	0.063097514
100	0x3d68773f	0.056754347
101	0xbc787123	-0.015163693
102	0x3d658d69	0.056043062
103	0x3d749289	0.05971006
104	0xbd1fd144	-0.03901793
105	0x3d6df382	0.058093555
106	0xbd9a41a0	-0.07532048
107	0x3b07f87c	0.0020747473
108	0x3b7e1999	0.0038772582
109	0xbe121730	-0.14266658
110	0x3e1ede64	0.15514523
111	0x3d9d4d66	0.07680778
112	0xbd1a00a1	-0.037598256
113	0x3eaab692	0.33342415
114	0x3d811766	0.06303291
115	0x3da38e4b	0.079861246
116	0xbe08e6ba	-0.13369265
117	0xbd620219	-0.05517778
118	0x3d46a399	0.048495863
119	0xbc7281c0	-0.014801443
120	0xbeb4a3be	-0.35281175
121	0xbd0bd2b1	-0.034136478
122	0xbd614549	-0.054997716
123	0x3d74c06b	0.059753817
124	0x3dd2094a	0.10255678
125	0xbe8b30ac	-0.2718557
126	0x3db02d03	0.08602335
127	0x3da2f7fe	0.07957457

actor_head.bias f4 [2]
0	0xbd0a273f	-0.033728834
1	0xbdc5c29f	-0.09656262

exp_avg f4 [128, 384]
0	0xba9edda4	-0.0012120497
1	0xb9a66863	-0.00031739761
2	0x38bfe5fc	9.150428e-05
3	0xba38499b	-0.0007030011
4	0x39a731f2	0.00031889934
5	0x398ced87	0.00026879853
6	0x3b1d8057	0.0024032795
7	0xb9cdff96	-0.00039291073
8	0x395293df	0.00020082247
9	0xb9aa3c78	-0.0003246998
10	0x3a0035e6	0.0004890844
11	0x3a1831c8	0.0005805758
12	0x371634eb	8.953018e-06
13	0xbae9c57c	-0.0017835344
14	0xba7d0204	-0.00096514844
15	0xbac3a008	-0.0014925012
16	0xba11ce3d	-0.0005562043
17	0x39c774fc	0.00038043398
18	0xbb19a2f5	-0.0023443077
19	0xbaa59632	-0.0012633263
20	0xb9877e92	-0.0002584351
21	0xbad51e0a	-0.0016259563
22	0xba831e11	-0.0010003467
23	0x39e0b134	0.00042856636
24	0x39d25378	0.0004011651
25	0x39c664be	0.00037840562
26	0xb9cb8824	-0.0003882061
27	0x3a91bb4e	0.0011118443
28	0xbac1fb3c	-0.0014799605
29	0xbaca7031	-0.0015444813
30	0x3a1118f8	0.00055350317
31	0x3a521bbd	0.00080149976
32	0x384ecc7c	4.930467e-05
33	0xbab9e74c	-0.0014183312
34	0x399d2c68	0.0002997846
35	0xb90e56fc	-0.0001357458
36	0xb9784f03	-0.00023680557
37	0x37907eb0	1.7225131e-05
38	0x3a07796b	0.0005167934
39	0xba8a5731	-0.001055455
40	0xbb2ffe88	-0.0026854593
41	0xbaf67eca	-0.0018806097
42	0xb9b87059	-0.0003517892
43	0x3a426914	0.00074161706
44	0x3a66e5bf	0.00088080385
45	0x3a798b3b	0.0009519343
46	0xba49051a	-0.00076683017
47	0xb814ec73	-3.550616e-05
48	0x3ac9e7da	0.001540418
49	0x3a9a2e3d	0.0011763048
50	0x3a43275a	0.00074445235
51	0xbab428a6	-0.0013745024
52	0xb928098c	-0.00016025285
53	0xb9952bbe	-0.00028452085
54	0xba4742be	-0.0007601193
55	0x3af26a69	0.0018494847
56	0x3a53b043	0.0008075276
57	0x3a4c533b	0.0007794385
58	0x396359e1	0.0002168189
59	0xba050ea7	-0.0005075731
60	0x3ae44a22	0.0017417113
61	0xba931560	-0.001122158
62	0xb7eeefe7	-2.8483524e-05
63	0x3ac4ec04	0.0015023951
64	0xb9a20c2b	-0.00030908114
65	0xbac04016	-0.0014667537
66	0xbacb779f	-0.0015523321
67	0xba824a8b	-0.0009940428
68	0x399b6bf2	0.0002964433
69	0xbb079e2a	-0.0020693638
70	0x39797932	0.00023791639
71	0xbaaced34	-0.0013193251
72	0xb9de0a54	-0.00042350835
73	0x3a48317b	0.00076367677
74	0x3a9d570e	0.0012004094
75	0x39e140de	0.00042963674
76	0x3a118da8	0.00055524195
77	0x39f3573d	0.0004641357
78	0x3a8e9c65	0.001088035
79	0x3b1c97ac	0.0023894114
80	0xb9b3e900	-0.0003431514
81	0xba6395e6	-0.00086816994
82	0xba90e77d	-0.0011055317
83	0x3aa1d7d2	0.0012347645
84	0x3a7c2f5b	0.00096200936
85	0xb936ce5b	-0.00017433746
86	0x38891167	6.5359105e-05
87	0x3ab9242d	0.0014125161
88	0x39c7a2fa	0.00038077665
89	0xba45a090	-0.0007538879
90	0x3aede95f	0.0018151215
91	0xb9d2bd62	-0.00040195422
92	0x39f02953	0.00045807156
93	0xba212b56	-0.000614812
94	0xbacaaf8f	-0.0015463697
95	0xb9375017	-0.00017482076
96	0x3a1d70b6	0.000600587
97	0xb91dcff5	-0.00015050157
98	0xb9e7fdec	-0.0004424894
99	0x3b2ad099	0.0026064275
100	0x3a8b1a30	0.0010612663
101	0x3aa1b241	0.0012336449
102	0xb99dfd98	-0.00030134316
103	0xbae9d95d	-0.0017841269
104	0x3a5f171b	0.0008510218
105	0xbaac7ca1	-0.0013159701
106	0x3aae89e1	0.0013316238
107	0x3a9efe14	0.0012130165
108	0x3aaa2a04	0.0012982492
109	0x3a2b8afa	0.00065438414
110	0xba9b5bc0	-0.0011852905
111	0x390f5dd3	0.00013672495
112	0x3806468b	3.2013788e-05
113	0x3aa9a77d	0.0012943592
114	0x3a1c79e4	0.0005969091
115	0xb9b1e6b7	-0.00033931967
116	0xbaa15960	-0.0012309961
117	0x39b2634e	0.00034024793
118	0x3a1030d8	0.00055004423
119	0xba4488c6	-0.00074971875
120	0x3a31aab6	0.0006777452
121	0x3ad5ad41	0.0016302244
122	0x38036631	3.1328007e-05
123	0xba347b5a	-0.0006884836
124	0xba98343c	-0.0011612247
125	0xbaeb3976	-0.0017946202
126	0x39bcc80c	0.000360072
127	0x8754cfbc	-1.6010155e-34
128	0xbac84142	-0.0015278237
129	0x3af9fe09	0.0019072901
130	0xb87bda6c	-6.0046485e-05
131	0x395cbca0	0.00021051103
132	0x3a4783a6	0.00076108647
133	0xb9e6c53d	-0.00044015973
134	0x3a8db58e	0.0010811554
135	0xba4da37d	-0.0007844491
136	0xbb0cee77	-0.002150444
137	0x3a24c07b	0.00062847853
138	0xbab60cd0	-0.0013889316
139	0x3a63e885	0.0008694011
140	0x3a25d45e	0.00063258957
141	0xb95604ea	-0.00020410461
142	0x39c8dfe6	0.0003831379
143	0xb8af63b2	-8.36322e-05
144	0xb9ee8096	-0.000454907
145	0xb991dee9	-0.00027822636
146	0x399591e6	0.00028528197
147	0xba26be12	-0.000636072
148	0xba40e2a0	-0.00073579885
149	0x3a127ea0	0.00055883266
150	0x3ab8f65f	0.001411151
151	0xb9b08764	-0.0003367021
152	0x3a4a4eaa	0.00077174103
153	0xb9fa926e	-0.00047792814
154	0x38ca4879	9.64561e-05
155	0xb7f8c854	-2.9657189e-05
156	0x3a8db8a8	0.0010812478
157	0x3a30a6ed	0.0006738741
158	0x3a75e285	0.00093797623
159	0x39b328cc	0.00034171937
160	0xba72ef4b	-0.0009267225
161	0xb9e495c4	-0.00043599133
162	0xba8f28a6	-0.0010922148
163	0x39909e02	0.00027583545
164	0x39b961c4	0.0003535879
165	0xbaed57d8	-0.0018107845
166	0xb7e82154	-2.7672075e-05
167	0x3992e8fc	0.00028020877
168	0xba618f64	-0.0008604436
169	0xba837572	-0.0010029508
170	0xba93268c	-0.0011226698
171	0x3a088a39	0.0005208585
172	0xb939e66b	-0.00017728812
173	0x3a1abb7b	0.00059025706
174	0x3a971432	0.0011526404
175	0xb9a5b3a2	-0.0003160509
176	0x3abaef63	0.0014262017
177	0x3971b6b0	0.00023051607
178	0xbaf50b63	-0.001869541
179	0x39b79681	0.00035016614
180	0xbac981e7	-0.0015373797
181	0x3a74e7e6	0.0009342417
182	0x38dae13f	0.000104370054
183	0x39b72ba9	0.0003493701
184	0x395950af	0.0002072479
185	0x3a24fe67	0.00062940124
186	0xba22d366	-0.00062113104
187	0xbaa125c9	-0.0012294586
188	0x3a4017c5	0.00073277607
189	0x3abf0dcf	0.0014576259
190	0xbac68822	-0.0015146772
191	0xb8940255	-7.057624e-05
192	0xbad38c78	-0.0016139885
193	0xba12d9b3	-0.0005601898
194	0x3afbe38d	0.0019217596
195	0xba8f5570	-0.0010935497
196	0x3a926276	0.001116826
197	0x3a595cbd	0.0008291712
198	0xb9d231dd	-0.00040091472
199	0xba09940a	-0.0005248195
200	0xb8dc0917	-0.000104921106
201	0x3a842618	0.0010082154
202	0xbb2a6114	-0.0025997804
203	0x3a66cec8	0.00088046165
204	0xb9bc142d	-0.00035873186
205	0x3aaa8a0f	0.0013011115
206	0xb98d7290	-0.0002697897
207	0x3a33cbbe	0.0006858668
208	0x3a0cd483	0.0005372243
209	0x394a83b0	0.00019313279
210	0xba4ba8bc	-0.0007768979
211	0x3b12001c	0.0022277897
212	0xba66e60b	-0.0008808083
213	0x3a90be3d	0.0011043024
214	0x3a22f8b4	0.0006216869
215	0x39c6acaa	0.00037894148
216	0xba02a6c1	-0.0004983955
217	0x398e8b39	0.0002718808
218	0xbabbec5a	-0.0014337406
219	0xba28b0bd	-0.00064350275
220	0x3ac6ee02	0.0015177133
221	0xb960f64e	-0.0002145406
222	0xba60e187	-0.0008578528
223	0x06ae9449	6.566941e-35
224	0xba2ba764	-0.00065480755
225	0xba780c4a	-0.00094622804
226	0x3878fb9d	5.936214e-05
227	0xba910e03	-0.0011066798
228	0x3a61fa27	0.00086203445
229	0x392aad7f	0.00016277096
230	0xb8f8373b	-0.00011835849
231	0xb8154bde	-3.5595025e-05
232	0xba6bd8ab	-0.00089968246
233	0x3a2fdcb3	0.0006708607
234	0x3aae7c93	0.0013312272
235	0x3ad9639a	0.001658547
236	0x3a89515c	0.0010476517
237	0x38863782	6.399957e-05
238	0x3b0487d5	0.0020222564
239	0x3af1a45e	0.0018435826
240	0x39c1fe07	0.00037001094
241	0x39599b6e	0.00020752635
242	0xbaed047a	-0.0018082999
243	0xbacfc976	-0.0015852887
244	0xba51e446	-0.00080067327
245	0xb86ccd57	-5.6458022e-05
246	0xb92ed5a8	-0.00016673526
247	0xb9b92f9b	-0.0003532142
248	0xb99c3c8c	-0.0002979975
249	0x39335c60	0.00017105183
250	0x3a157def	0.00057026645
251	0x38c3893a	9.323885e-05
252	0xb9d59a6e	-0.00040741585
253	0xb93b2a8e	-0.00017849563
254	0x3b0c683b	0.002142443
255	0xba6a0f08	-0.00089286314

exp_avg_sq f4 [128, 384]
0	0x36bfdb70	5.7177895e-06
1	0x344b588f	1.8938066e-07
2	0x35186d56	5.678352e-07
3	0x3582419a	9.704847e-07
4	0x349387a2	2.747957e-07
5	0x34bc1707	3.5034483e-07
6	0x37020715	7.750253e-06
7	0x3550e294	7.781575e-07
8	0x3503119a	4.8826917e-07
9	0x34fbbcdb	4.6889804e-07
10	0x3580dfde	9.601897e-07
11	0x34d05934	3.8807923e-07
12	0x3508ef7e	5.1012455e-07
13	0x36e0263b	6.680171e-06
14	0x365d6b0d	3.2993878e-06
15	0x36ef2e5e	7.128153e-06
16	0x359d36dc	1.1713378e-06
17	0x364bce88	3.0369574e-06
18	0x374cba19	1.2202677e-05
19	0x35dbec5c	1.6385561e-06
20	0x34bb32e1	3.4868484e-07
21	0x3657e65a	3.2171579e-06
22	0x369d6df5	4.6917653e-06
23	0x35a87cc4	1.2553287e-06
24	0x361016fc	2.147105e-06
25	0x3566aac5	8.593018e-07
26	0x361a0a23	2.2953689e-06
27	0x3636b266	2.7223955e-06
28	0x36fdb64d	7.56121e-06
29	0x36caaa8b	6.039923e-06
30	0x362e9d97	2.601975e-06
31	0x35afce8c	1.3098629e-06
32	0x35f0f7bc	1.7953494e-06
33	0x36c31858	5.814287e-06
34	0x345eb551	2.0741324e-07
35	0x35977f3d	1.1287408e-06
36	0x34ff94bc	4.760567e-07
37	0x3557c031	8.0373417e-07
38	0x346f482c	2.2284866e-07
39	0x35ad98fa	1.2934026e-06
40	0x37805f51	1.5303174e-05
41	0x36732715	3.623257e-06
42	0x3519051e	5.700439e-07
43	0x36167a4f	2.2422935e-06
44	0x3680edaa	3.842365e-06
45	0x35cb871f	1.5164004e-06
46	0x35a2ba3e	1.2124144e-06
47	0x34f8d76a	4.6350334e-07
48	0x37277128	9.980322e-06
49	0x368a715b	4.125917e-06
50	0x35dc140a	1.639711e-06
51	0x3654da61	3.1717575e-06
52	0x35d6d0f7	1.6005059e-06
53	0x356ac50d	8.745854e-07
54	0x34d215a1	3.9131285e-07
55	0x370fb3f7	8.5653655e-06
56	0x361b6e4d	2.3161003e-06
57	0x3681e9ee	3.8717326e-06
58	0x343b0944	1.7419103e-07
59	0x3596676c	1.1205971e-06
60	0x36901e90	4.2950924e-06
61	0x36eb5ede	7.0145898e-06
62	0x3400df47	1.2002157e-07
63	0x3647a257	2.9747805e-06
64	0x356506f1	8.531925e-07
65	0x35f8bce1	1.8532411e-06
66	0x36e18ceb	6.7219275e-06
67	0x3662476c	3.3718197e-06
68	0x34d1e6c9	3.9097202e-07
69	0x36f0ba7c	7.174267e-06
70	0x35cdb9cd	1.5327765e-06
71	0x3664154b	3.3987042e-06
72	0x3486c25b	2.5100857e-07
73	0x36683e2c	3.4606883e-06
74	0x36864c7a	4.0024142e-06
75	0x366188cc	3.360724e-06
76	0x351b6d30	5.790089e-07
77	0x357e3f4f	9.47145e-07
78	0x34f3a2ec	4.5380818e-07
79	0x378147a9	1.5411368e-05
80	0x364674c0	2.9572257e-06
81	0x36c22e1f	5.7870197e-06
82	0x3599f8fe	1.1471855e-06
83	0x360b9814	2.0801135e-06
84	0x3697dbd6	4.525743e-06
85	0x34a2285d	3.020422e-07
86	0x35829551	9.729212e-07
87	0x36dc6ae4	6.5689546e-06
88	0x3626c9aa	2.4853312e-06
89	0x355a2e45	8.127866e-07
90	0x3697e5f5	4.526921e-06
91	0x34a9488f	3.1531496e-07
92	0x362dda20	2.5905974e-06
93	0x35ba7d0d	1.3894474e-06
94	0x36be49d4	5.671036e-06
95	0x3526f8ee	6.220206e-07
96	0x3595d17b	1.1162332e-06
97	0x352f6420	6.533828e-07
98	0x34ba91cb	3.4751278e-07
99	0x3787df07	1.619711e-05
100	0x36657d02	3.4196423e-06
101	0x36183db1	2.2685674e-06
102	0x35698379	8.699058e-07
103	0x36f3ea2c	7.2692255e-06
104	0x363e0571	2.8315374e-06
105	0x3680c5b3	3.8377125e-06
106	0x364c854b	3.0475956e-06
107	0x36cee88e	6.1663513e-06
108	0x3608046e	2.0268158e-06
109	0x34d21175	3.912825e-07
110	0x36a395f2	4.8752345e-06
111	0x3434d733	1.6842095e-07
112	0x35cabfc1	1.510598e-06
113	0x3658990b	3.227559e-06
114	0x35c7f02a	1.4896552e-06
115	0x35af3cad	1.3056175e-06
116	0x36b1e6c1	5.3018744e-06
117	0x345e9d32	2.0732548e-07
118	0x352f3557	6.52702e-07
119	0x36fc21e5	7.514131e-06
120	0x3587b65e	1.011136e-06
121	0x372ba265	1.0230205e-05
122	0x354750cf	7.425087e-07
123	0x35bedc20	1.4220168e-06
124	0x367eef93	3.79884e-06
125	0x37216592	9.6199965e-06
126	0x360fc4dc	2.1423248e-06
127	0x00000000	0.0
128	0x36b6c2fa	5.446721e-06
129	0x36c803dc	5.9609138e-06
130	0x345f2889	2.078324e-07
131	0x358cef04	1.0500376e-06
132	0x363d4b17	2.8206903e-06
133	0x359534c4	1.1116722e-06
134	0x368c68a2	4.184506e-06
135	0x35337470	6.6852135e-07
136	0x36d140cf	6.23623e-06
137	0x35741b33	9.0936663e-07
138	0x362adec4	2.546164e-06
139	0x36c1f160	5.779948e-06
140	0x359de10c	1.1762909e-06
141	0x3588dca7	1.0197008e-06
142	0x35a3313f	1.2158779e-06
143	0x35d6365a	1.5960061e-06
144	0x357a4f67	9.3247803e-07
145	0x34a0aa9d	2.992646e-07
146	0x347bfc77	2.3468043e-07
147	0x35ca4322	1.5069711e-06
148	0x358691e9	1.0026243e-06
149	0x34d71cd9	4.006786e-07
150	0x36355d34	2.7025353e-06
151	0x35b29db6	1.3307933e-06
152	0x3613e475	2.2037686e-06
153	0x35d362a0	1.5749429e-06
154	0x354b935e	7.583784e-07
155	0x340fe570	1.3401382e-07
156	0x36c99108	6.0071507e-06
157	0x34762b3c	2.2926264e-07
158	0x3681c373	3.867253e-06
159	0x349157c2	2.7072207e-07
160	0x3503457f	4.8902433e-07
161	0x35ff32a1	1.9013715e-06
162	0x365baf2a	3.2735502e-06
163	0x34de3f70	4.139688e-07
164	0x359d3094	1.171155e-06
165	0x364c7c47	3.0470708e-06
166	0x35963103	1.1190135e-06
167	0x34c2650a	3.6208831e-07
168	0x35dbe90a	1.6384595e-06
169	0x35c1f531	1.4450981e-06
170	0x36c83a54	5.9672548e-06
171	0x35234b7c	6.0832076e-07
172	0x34f3a8e3	4.5385158e-07
173	0x35895e08	1.0234662e-06
174	0x36c32403	5.815645e-06
175	0x35316d0c	6.609632e-07
176	0x3592a767	1.0926568e-06
177	0x350e0b50	5.2915584e-07
178	0x36a1090f	4.7992285e-06
179	0x35be1bd3	1.4164201e-06
180	0x360bee33	2.0851264e-06
181	0x36118fe7	2.1690446e-06
182	0x35bb9cd6	1.3978231e-06
183	0x3439d5cb	1.7307245e-07
184	0x354bca72	7.591799e-07
185	0x362e92ef	2.6013547e-06
186	0x35980273	1.1325595e-06
187	0x3636a45a	2.7215779e-06
188	0x36cbf454	6.078315e-06
189	0x36250584	2.4590126e-06
190	0x364af65d	3.0243748e-06
191	0x35061b7d	4.995889e-07
192	0x3736e562	1.0901453e-05
193	0x361b643e	2.3155148e-06
194	0x36960e31	4.4720005e-06
195	0x36131675	2.1917779e-06
196	0x35f5f410	1.8324954e-06
197	0x35e75b11	1.7237345e-06
198	0x346ff89b	2.2349052e-07
199	0x346d368f	2.2092193e-07
200	0x3487f4c3	2.5323797e-07
201	0x363e5a6e	2.8364843e-06
202	0x36dc2e72	6.561918e-06
203	0x35a2672f	1.2099971e-06
204	0x35dc3043	1.6405323e-06
205	0x356875ff	8.659844e-07
206	0x3587eb1b	1.0126709e-06
207	0x359ecbea	1.1831264e-06
208	0x3453a3fe	1.9710566e-07
209	0x35b54052	1.350427e-06
210	0x3662b5fd	3.3782555e-06
211	0x374bd7e4	1.2150009e-05
212	0x34d4b086	3.9616515e-07
213	0x362d84b1	2.5856245e-06
214	0x35906743	1.0758889e-06
215	0x344004f0	1.788319e-07
216	0x34cb09a9	3.7818725e-07
217	0x3505661d	4.9694955e-07
218	0x3709385d	8.178959e-06
219	0x3684dc50	3.9595543e-06
220	0x36d49c04	6.336255e-06
221	0x3554c99b	7.926953e-07
222	0x35545180	7.909475e-07
223	0x00000000	0.0
224	0x354f00b7	7.711455e-07
225	0x363073ae	2.6293378e-06
226	0x3536e1bd	6.8128776e-07
227	0x364d3865	3.0580206e-06
228	0x34c2f72f	3.6315166e-07
229	0x34526a2c	1.9596399e-07
230	0x336ef157	5.563319e-08
231	0x35b1c738	1.3245508e-06
232	0x35a07c73	1.1957148e-06
233	0x361dba60	2.3503308e-06
234	0x3585f3f8	9.980276e-07
235	0x361e500d	2.359043e-06
236	0x370447c9	7.884527e-06
237	0x34d66192	3.9931598e-07
238	0x370e8972	8.495861e-06
239	0x368b7ebd	4.157277e-06
240	0x34a74065	3.1153027e-07
241	0x3481e0d4	2.4191706e-07
242	0x367c28b7	3.7574625e-06
243	0x3679ea7f	3.7240386e-06
244	0x35987029	1.1357525e-06
245	0x3512e1c2	5.471776e-07
246	0x35bf5cc7	1.4257611e-06
247	0x350f822d	5.346108e-07
248	0x3634a514	2.6918178e-06
249	0x35e8c40f	1.7342408e-06
250	0x35933a9d	1.0969412e-06
251	0x34bcc063	3.5157709e-07
252	0x353a6d5e	6.944955e-07
253	0x356f3908	8.911743e-07
254	0x374c3f89	1.21741405e-05
255	0x36a2f1ba	4.856117e-06

exp_avg f4 [128]
0	0x3d0ae48c	0.033909366
1	0x3bf0cfbe	0.0073489835
2	0x3ccf099e	0.02527314
3	0x3cfdeffe	0.030998226
4	0x00000000	0.0
5	0x3c039695	0.008031507
6	0x2501ef8f	1.1270132e-16
7	0x3c695a01	0.01424265
8	0x3c6c5423	0.014424357
9	0x3cd2095f	0.025639234
10	0x00000000	0.0
11	0x3d00453b	0.031316023
12	0x3cbcf0fd	0.02306413
13	0x260bab8b	4.8457797e-16
14	0x234bf0b3	1.1055622e-17
15	0x21823f85	8.825956e-19
16	0x3d340bd6	0.0439566
17	0x3c8bda92	0.017071996
18	0x22ae61c6	4.7266316e-18
19	0x00000000	0.0
20	0xb69a517f	-4.599045e-06
21	0x23304fc9	9.557874e-18
22	0x3c9619d5	0.018322865
23	0x223c22d0	2.549718e-18
24	0x3c979fa0	0.018508732
25	0x322c4bcb	1.0028951e-08
26	0x23925023	1.5863291e-17
27	0x3d2cfc8c	0.042233035
28	0x2557f00a	1.8729606e-16
29	0x3ca5c6cd	0.020236397
30	0x242a89cc	3.6979592e-17
31	0x3c8478f0	0.016170949
32	0x23f78272	2.683504e-17
33	0x3c5d3874	0.013502229
34	0x3c22d752	0.009939032
35	0xbac49cce	-0.0015000345
36	0x3d094587	0.033513572
37	0x263160c6	6.1540364e-16
38	0x255b24e7	1.9007725e-16
39	0x3c49faa6	0.012327826
40	0x22a3260d	4.4221526e-18
41	0x3c517504	0.012784246
42	0x3c76ef86	0.015071755
43	0x3ca64af4	0.020299412
44	0x3c183ff6	0.009292593
45	0x00000000	0.0
46	0x30a40142	1.1932928e-09
47	0x2187f195	9.211902e-19
48	0x3c8837c5	0.016628155
49	0x3d0ea91c	0.034829244
50	0x3d1ea6e0	0.038733363
51	0x3c9b34c2	0.018946055
52	0x3c89de0b	0.016829511
53	0x1ff5c19b	1.0408183e-19
54	0x3d0fce78	0.035109013
55	0x3ce24b3b	0.027623763
56	0x3d3b9ea9	0.045805607
57	0x3cab82d6	0.02093641
58	0x240cdfe6	3.054731e-17
59	0x263925c7	6.4235966e-16
60	0x3a2f8a5e	0.00066963385
61	0x3d1d3d32	0.03838844
62	0x3bcf708f	0.0063305567
63	0x3bf9f611	0.0076282104
64	0x00000000	0.0
65	0x3d25182c	0.040306255
66	0x3d0efc86	0.034908794
67	0x25a6d22d	2.893883e-16
68	0x2452d5be	4.5717538e-17
69	0x3c4eadd4	0.012614686
70	0x3cef02af	0.029176084
71	0x256352f7	1.9717221e-16
72	0x2598378e	2.6405442e-16
73	0x3c9ad22d	0.018899048
74	0x23bacb05	2.0252143e-17
75	0x3ca4fa7a	0.020138968
76	0x3cebffa4	0.028808422
77	0x3c8bbabb	0.017056813
78	0x3c6be85b	0.01439866
79	0x3cc0e568	0.02354689
80	0x2375a81e	1.3317077e-17
81	0x3cc9675f	0.024585424
82	0x2560ab04	1.9486845e-16
83	0x2517e88e	1.3175955e-16
84	0x3165c135	3.3433711e-09
85	0x3c86295f	0.01637715
86	0x3d009521	0.03139222
87	0x3c6b56c7	0.014363951
88	0x3cf61700	0.030040264
89	0x3cb78ea4	0.022406884
90	0x24065eef	2.913703e-17
91	0x3ce8ade3	0.028403228
92	0x3c979a6e	0.018506255
93	0x3ccfa26b	0.025346002
94	0x00000000	0.0
95	0x3c8c3cd1	0.017118843
96	0x252209b7	1.4054552e-16
97	0x3c9fc3b6	0.019502502
98	0x3d1d8b12	0.038462706
99	0x3b73cead	0.0037202046
100	0x00000000	0.0
101	0x26018a6a	4.494345e-16
102	0x3d61d756	0.055137
103	0x3c8b8d74	0.017035224
104	0x3cdbdfce	0.026840117
105	0x25327307	1.5478012e-16
106	0x00000000	0.0
107	0x25a4120b	2.8461691e-16
108	0x240819d6	2.9512183e-17
109	0x23a3b5f4	1.7749556e-17
110	0x3c80aebe	0.015708324
111	0x3bd158db	0.006388766
112	0x23b367f4	1.9451245e-17
113	0x22ab9392	4.650589e-18
114	0x3c55e588	0.013055213
115	0x00000000	0.0
116	0x00000000	0.0
117	0x3ca64435	0.020296196
118	0x252c9cd2	1.4971755e-16
119	0x3cbda645	0.023150573
120	0x3c347ec9	0.011016556
121	0x239b53c9	1.6840618e-17
122	0x3c9efc3c	0.019407384
123	0x3bec3d9a	0.007209492
124	0x3d1dd4ae	0.038532905
125	0x248a84a8	6.007269e-17
126	0x00000000	0.0
127	0x3cbbe42c	0.02293595

exp_avg_sq f4 [128]
0	0x3b38ac8c	0.0028179018
1	0x38dd7237	0.000105593754
2	0x3ade41b8	0.0016956842
3	0x3a102b51	0.0005499619
4	0x00000000	0.0
5	0x3906c05c	0.00012850895
6	0x369eb944	4.7303347e-06
7	0x3a859a36	0.0010193053
8	0x3a036fba	0.0005013902
9	0x3b5613f9	0.0032665713
10	0x00000000	0.0
11	0x3b84219a	0.004032326
12	0x3b22c241	0.0024835023
13	0x3820d361	3.8343835e-05
14	0x348b0429	2.5893794e-07
15	0x304d260d	7.463264e-10
16	0x3b81b866	0.0039587496
17	0x3a04f14b	0.0005071356
18	0x32c3b6ae	2.278406e-08
19	0x00000000	0.0
20	0x372348a5	9.732471e-06
21	0x340500f5	1.2386938e-07
22	0x3ab242c7	0.0013600223
23	0x329725f1	1.7595967e-08
24	0x3ae6b8ee	0.0017602721
25	0x37827473	1.5551434e-05
26	0x34002e4a	1.1937769e-07
27	0x3ba977e8	0.0051717646
28	0x3708c43d	8.151922e-06
29	0x3aca8243	0.0015450198
30	0x357a5837	9.3260627e-07
31	0x3a821be4	0.0009926525
32	0x350ee866	5.3237306e-07
33	0x3a332289	0.0006833454
34	0x399f46d1	0.00030379606
35	0x39885fe7	0.00026011394
36	0x3b01db83	0.0019814677
37	0x38cccc9c	9.7655895e-05
38	0x365192e2	3.1228924e-06
39	0x3a0ac32e	0.0005293366
40	0x3331eec9	4.1428198e-08
41	0x3a002932	0.0004888951
42	0x3a6ad40c	0.0008957989
43	0x3acac192	0.0015469065
44	0x3a0c35cf	0.0005348594
45	0x00000000	0.0
46	0x35c85842	1.4926848e-06
47	0x30f71478	1.7977433e-09
48	0x3a950bb7	0.0011371289
49	0x3ad2e535	0.0016090038
50	0x3b17f1aa	0.0023184814
51	0x3a9808b4	0.0011599273
52	0x3a96c0fb	0.0011501604
53	0x2dc9de55	2.294979e-11
54	0x3b457853	0.0030131533
55	0x3b071cd7	0.0020616555
56	0x3987f0ce	0.0002592862
57	0x3ac26ad8	0.0014832867
58	0x356ddf83	8.861463e-07
59	0x391b5b5f	0.0001481599
60	0x38a8bc70	8.0459635e-05
61	0x3b3cfad7	0.0028836036
62	0x387b4cf5	5.9914735e-05
63	0x390fe6f9	0.00013723587
64	0x00000000	0.0
65	0x3b297e16	0.0025862507
66	0x3b4040fe	0.0029335613
67	0x3860f033	5.3629465e-05
68	0x35c44e24	1.462588e-06
69	0x39b9f2ab	0.0003546675
70	0x3b5c2230	0.0033589713
71	0x378e03bb	1.6929456e-05
72	0x373e980f	1.1360286e-05
73	0x3aaa885d	0.001301061
74	0x349865bc	2.8386228e-07
75	0x3a38f8ce	0.0007056118
76	0x3adb91be	0.0016751809
77	0x3ac3525d	0.0014901866
78	0x3ab7c47b	0.0014020348
79	0x38daf3a0	0.00010440429
80	0x34084a84	1.2693096e-07
81	0x3b1a1b7b	0.0023514915
82	0x37adc838	2.0716441e-05
83	0x3714d04b	8.869984e-06
84	0x3847f97b	4.7677644e-05
85	0x3ab746d1	0.0013982897
86	0x3b828e93	0.0039842813
87	0x3a0fac44	0.00054806867
88	0x3b7d52f1	0.0038654173
89	0x3afc3b55	0.0019243757
90	0x3518696a	5.677781e-07
91	0x3b373c17	0.00279594
92	0x3aeb0b43	0.0017932433
93	0x3ad9d2d2	0.0016618615
94	0x00000000	0.0
95	0x3a9bb3cc	0.0011879145
96	0x3728ee38	1.0069045e-05
97	0x3b0ae2df	0.0021192355
98	0x396fd99f	0.00022873886
99	0x3881d74d	6.191302e-05
100	0x00000000	0.0
101	0x38b7dda0	8.767401e-05
102	0x39a84997	0.00032098286
103	0x39d99249	0.00041498456
104	0x3af864fd	0.0018950995
105	0x37233d5e	9.729845e-06
106	0x00000000	0.0
107	0x3800cee9	3.071028e-05
108	0x35844bc8	9.856822e-07
109	0x35332935	6.674266e-07
110	0x3a7bf9ec	0.00096121314
111	0x38bc367d	8.974688e-05
112	0x35572939	8.015373e-07
113	0x32d97d2d	2.5319048e-08
114	0x39ded621	0.00042502678
115	0x00000000	0.0
116	0x00000000	0.0
117	0x3ab471d9	0.0013766839
118	0x3713c5e7	8.8079605e-06
119	0x3a8e97f3	0.0010879025
120	0x39823981	0.00024838376
121	0x33add2a5	8.094256e-08
122	0x3af8e6b3	0.0018989652
123	0x38f49248	0.00011662074
124	0x3a981526	0.0011602982
125	0x36705732	3.5813541e-06
126	0x00000000	0.0
127	0x3af018de	0.0018317958
